…
...                                                 ...  ...     ...
1856  findex.com quickverse bible study 2007 mobile ...  ...  4579.0
1857                 microsoft ( r ) expression web 1.0  ...  4583.0
1858                 jumpstart ( r ) advanced 1st grade  ...  4584.0
1859       ibm ( r ) viavoice ( r ) advanced edition 10  ...  4585.0
1860                        documents to go premium 7.0  ...  4587.0

[1861 rows x 4 columns]
textualformatter <function ditto_formatter at 0x7f3b25446310>
NUMERICAL None
TEXTUAL BaseRoberta(
  (roberta): RobertaModel(
    (embeddings): RobertaEmbeddings(
      (word_embeddings): Embedding(50265, 768, padding_idx=1)
      (position_embeddings): Embedding(514, 768, padding_idx=1)
      (token_type_embeddings): Embedding(1, 768)
      (LayerNorm): LayerNorm((768,), eps=1e-05, elementwise_affine=True)
      (dropout): Dropout(p=0.1, inplace=False)
    )
    (encoder): RobertaEncoder(
      (layer): ModuleList(
        (0-11): 12 x RobertaLayer(
          (attention): RobertaAttention(
            (self): RobertaSelfAttention(
              (query): Linear(in_features=768, out_features=768, bias=True)
              (key): Linear(in_features=768, out_features=768, bias=True)
              (value): Linear(in_features=768, out_features=768, bias=True)
              (dropout): Dropout(p=0.1, inplace=False)
            )
            (output): RobertaSelfOutput(
              (dense): Linear(in_features=768, out_features=768, bias=True)
              (LayerNorm): LayerNorm((768,), eps=1e-05, elementwise_affine=True)
              (dropout): Dropout(p=0.1, inplace=False)
            )
          )
          (intermediate): RobertaIntermediate(
            (dense): Linear(in_features=768, out_features=3072, bias=True)
            (intermediate_act_fn): GELUActivation()
          )
          (output): RobertaOutput(
            (dense): Linear(in_features=3072, out_features=768, bias=True)
            (LayerNorm): LayerNorm((768,), eps=1e-05, elementwise_affine=True)
            (dropout): Dropout(p=0.1, inplace=False)
          )
        )
      )
    )
    (pooler): RobertaPooler(
      (dense): Linear(in_features=768, out_features=768, bias=True)
      (activation): Tanh()
    )
  )
  (embeddings): Linear(in_features=768, out_features=128, bias=True)
  (dropout): Dropout(p=0.1, inplace=False)
)
FUSION None
STAGE True
TEXTUAL COLS ['title', 'manufacturer', 'id']
NUMERIC COLS ['price', 'id', 'entity_id']
['price', 'id', 'entity_id']
df                                                   title  ... entity_id
0     peachtree by sage premium accounting for nonpr...  ...       NaN
1               emc retrospect 7.5 disk to disk windows  ...       NaN
…
