…
...                                                 ...  ...      ...
2479  western digital wd elements 1.5 tb usb 2.0 des...  ...  24528.0
2480  visual land v-motion pro 4 gb video music 2.4-...  ...  24530.0
2481                  usb wireless optical scroll mouse  ...  24533.0
2482              tamron flc62 62mm front lens cap c1fd  ...  24540.0
2483  da-lite model b with csr high power - projecti...  ...  24625.0

[2484 rows x 6 columns]
textualformatter <function ditto_formatter at 0x7f5e21370310>
NUMERICAL None
TEXTUAL BaseRoberta(
  (roberta): RobertaModel(
    (embeddings): RobertaEmbeddings(
      (word_embeddings): Embedding(50265, 768, padding_idx=1)
      (position_embeddings): Embedding(514, 768, padding_idx=1)
      (token_type_embeddings): Embedding(1, 768)
      (LayerNorm): LayerNorm((768,), eps=1e-05, elementwise_affine=True)
      (dropout): Dropout(p=0.1, inplace=False)
    )
    (encoder): RobertaEncoder(
      (layer): ModuleList(
        (0-11): 12 x RobertaLayer(
          (attention): RobertaAttention(
            (self): RobertaSelfAttention(
              (query): Linear(in_features=768, out_features=768, bias=True)
              (key): Linear(in_features=768, out_features=768, bias=True)
              (value): Linear(in_features=768, out_features=768, bias=True)
              (dropout): Dropout(p=0.1, inplace=False)
            )
            (output): RobertaSelfOutput(
              (dense): Linear(in_features=768, out_features=768, bias=True)
              (LayerNorm): LayerNorm((768,), eps=1e-05, elementwise_affine=True)
              (dropout): Dropout(p=0.1, inplace=False)
            )
          )
          (intermediate): RobertaIntermediate(
            (dense): Linear(in_features=768, out_features=3072, bias=True)
            (intermediate_act_fn): GELUActivation()
          )
          (output): RobertaOutput(
            (dense): Linear(in_features=3072, out_features=768, bias=True)
            (LayerNorm): LayerNorm((768,), eps=1e-05, elementwise_affine=True)
            (dropout): Dropout(p=0.1, inplace=False)
          )
        )
      )
    )
    (pooler): RobertaPooler(
      (dense): Linear(in_features=768, out_features=768, bias=True)
      (activation): Tanh()
    )
  )
  (embeddings): Linear(in_features=768, out_features=128, bias=True)
  (dropout): Dropout(p=0.1, inplace=False)
)
FUSION None
STAGE True
TEXTUAL COLS ['title', 'category', 'brand', 'modelno', 'id']
NUMERIC COLS ['price', 'id', 'entity_id']
['price', 'id', 'entity_id']
df                                                   title  ... entity_id
0     comprehensive two-piece 75 precision bnc jack ...  ...       NaN
1                        d-link dcs-1100 network camera  ...       NaN
…
