…
4                                             fenix  ...    7.0
..                                              ...  ...    ...
225                                          mifune  ...  858.0
226                              ` plumpjack cafe '  ...  859.0
227                                         postrio  ...  860.0
228  ` ritz-carlton dining room ( san francisco ) '  ...  861.0
229               ` ritz-carlton cafe ( atlanta ) '  ...  863.0

[230 rows x 7 columns]
textualformatter <function ditto_formatter at 0x7fc4e8c14310>
NUMERICAL None
TEXTUAL BaseRoberta(
  (roberta): RobertaModel(
    (embeddings): RobertaEmbeddings(
      (word_embeddings): Embedding(50265, 768, padding_idx=1)
      (position_embeddings): Embedding(514, 768, padding_idx=1)
      (token_type_embeddings): Embedding(1, 768)
      (LayerNorm): LayerNorm((768,), eps=1e-05, elementwise_affine=True)
      (dropout): Dropout(p=0.1, inplace=False)
    )
    (encoder): RobertaEncoder(
      (layer): ModuleList(
        (0-11): 12 x RobertaLayer(
          (attention): RobertaAttention(
            (self): RobertaSelfAttention(
              (query): Linear(in_features=768, out_features=768, bias=True)
              (key): Linear(in_features=768, out_features=768, bias=True)
              (value): Linear(in_features=768, out_features=768, bias=True)
              (dropout): Dropout(p=0.1, inplace=False)
            )
            (output): RobertaSelfOutput(
              (dense): Linear(in_features=768, out_features=768, bias=True)
              (LayerNorm): LayerNorm((768,), eps=1e-05, elementwise_affine=True)
              (dropout): Dropout(p=0.1, inplace=False)
            )
          )
          (intermediate): RobertaIntermediate(
            (dense): Linear(in_features=768, out_features=3072, bias=True)
            (intermediate_act_fn): GELUActivation()
          )
          (output): RobertaOutput(
            (dense): Linear(in_features=3072, out_features=768, bias=True)
            (LayerNorm): LayerNorm((768,), eps=1e-05, elementwise_affine=True)
            (dropout): Dropout(p=0.1, inplace=False)
          )
        )
      )
    )
    (pooler): RobertaPooler(
      (dense): Linear(in_features=768, out_features=768, bias=True)
      (activation): Tanh()
    )
  )
  (embeddings): Linear(in_features=768, out_features=128, bias=True)
  (dropout): Dropout(p=0.1, inplace=False)
)
FUSION None
STAGE True
TEXTUAL COLS ['name', 'addr', 'city', 'phone', 'type', 'id']
NUMERIC COLS ['class', 'id', 'entity_id']
['class', 'id', 'entity_id']
df                                                name  ... entity_id
0                  ` arnie morton \ 's of chicago '  ...      62.0
1                         ` art \ 's delicatessen '  ...      64.0
…
