…
..                                                 ...  ...      ...
205                           We Dem Boyz [ Explicit ]  ...  60773.0
206     Street Money ( feat . Rick Ross ) [ Explicit ]  ...  60871.0
207  When Love Takes Over ( Feat . Kelly Rowland - ...  ...  61102.0
208  Where Are ÌÏ Now ( with Justin Bieber ) [ Mars...  ...  61244.0
209               Sweet Spot ( feat . Jennifer Lopez )  ...  61705.0

[210 rows x 9 columns]
textualformatter <function ditto_formatter at 0x7f83e60a7310>
NUMERICAL None
TEXTUAL BaseRoberta(
  (roberta): RobertaModel(
    (embeddings): RobertaEmbeddings(
      (word_embeddings): Embedding(50265, 768, padding_idx=1)
      (position_embeddings): Embedding(514, 768, padding_idx=1)
      (token_type_embeddings): Embedding(1, 768)
      (LayerNorm): LayerNorm((768,), eps=1e-05, elementwise_affine=True)
      (dropout): Dropout(p=0.1, inplace=False)
    )
    (encoder): RobertaEncoder(
      (layer): ModuleList(
        (0-11): 12 x RobertaLayer(
          (attention): RobertaAttention(
            (self): RobertaSelfAttention(
              (query): Linear(in_features=768, out_features=768, bias=True)
              (key): Linear(in_features=768, out_features=768, bias=True)
              (value): Linear(in_features=768, out_features=768, bias=True)
              (dropout): Dropout(p=0.1, inplace=False)
            )
            (output): RobertaSelfOutput(
              (dense): Linear(in_features=768, out_features=768, bias=True)
              (LayerNorm): LayerNorm((768,), eps=1e-05, elementwise_affine=True)
              (dropout): Dropout(p=0.1, inplace=False)
            )
          )
          (intermediate): RobertaIntermediate(
            (dense): Linear(in_features=768, out_features=3072, bias=True)
            (intermediate_act_fn): GELUActivation()
          )
          (output): RobertaOutput(
            (dense): Linear(in_features=3072, out_features=768, bias=True)
            (LayerNorm): LayerNorm((768,), eps=1e-05, elementwise_affine=True)
            (dropout): Dropout(p=0.1, inplace=False)
          )
        )
      )
    )
    (pooler): RobertaPooler(
      (dense): Linear(in_features=768, out_features=768, bias=True)
      (activation): Tanh()
    )
  )
  (embeddings): Linear(in_features=768, out_features=128, bias=True)
  (dropout): Dropout(p=0.1, inplace=False)
)
FUSION None
STAGE True
TEXTUAL COLS ['Song_Name', 'Artist_Name', 'Album_Name', 'Genre', 'Price', 'CopyRight', 'Time', 'Released', 'id']
NUMERIC COLS ['id', 'entity_id']
['id', 'entity_id']
df                                              Song_Name  ... entity_id
0                              VHS Outro ( Interlude )  ...      44.0
…
