…
...                                                 ...  ...     ...
2484  re-tree : an efficient index structure for reg...  ...  4902.0
2485  an approach for building secure database feder...  ...  4903.0
2486          dual-buffering strategies in object bases  ...  4905.0
2487                                    guest editorial  ...  4906.0
2488    bulk loading into an oodb : a performance study  ...  4909.0

[2489 rows x 5 columns]
textualformatter <function ditto_formatter at 0x7f0409ca1280>
NUMERICAL None
TEXTUAL BaseRoberta(
  (roberta): RobertaModel(
    (embeddings): RobertaEmbeddings(
      (word_embeddings): Embedding(50265, 768, padding_idx=1)
      (position_embeddings): Embedding(514, 768, padding_idx=1)
      (token_type_embeddings): Embedding(1, 768)
      (LayerNorm): LayerNorm((768,), eps=1e-05, elementwise_affine=True)
      (dropout): Dropout(p=0.1, inplace=False)
    )
    (encoder): RobertaEncoder(
      (layer): ModuleList(
        (0-11): 12 x RobertaLayer(
          (attention): RobertaAttention(
            (self): RobertaSelfAttention(
              (query): Linear(in_features=768, out_features=768, bias=True)
              (key): Linear(in_features=768, out_features=768, bias=True)
              (value): Linear(in_features=768, out_features=768, bias=True)
              (dropout): Dropout(p=0.1, inplace=False)
            )
            (output): RobertaSelfOutput(
              (dense): Linear(in_features=768, out_features=768, bias=True)
              (LayerNorm): LayerNorm((768,), eps=1e-05, elementwise_affine=True)
              (dropout): Dropout(p=0.1, inplace=False)
            )
          )
          (intermediate): RobertaIntermediate(
            (dense): Linear(in_features=768, out_features=3072, bias=True)
            (intermediate_act_fn): GELUActivation()
          )
          (output): RobertaOutput(
            (dense): Linear(in_features=3072, out_features=768, bias=True)
            (LayerNorm): LayerNorm((768,), eps=1e-05, elementwise_affine=True)
            (dropout): Dropout(p=0.1, inplace=False)
          )
        )
      )
    )
    (pooler): RobertaPooler(
      (dense): Linear(in_features=768, out_features=768, bias=True)
      (activation): Tanh()
    )
  )
  (embeddings): Linear(in_features=768, out_features=128, bias=True)
  (dropout): Dropout(p=0.1, inplace=False)
)
FUSION None
STAGE True
TEXTUAL COLS ['title', 'authors', 'venue', 'id']
NUMERIC COLS ['year', 'id', 'entity_id']
['year', 'id', 'entity_id']
df                                                   title  ... entity_id
0     semantic integration of environmental models f...  ...       NaN
1     estimation of query-result distribution and it...  ...       NaN
…
